model.pth (torch, 417991 bytes, 9 tensors)

encoder.embed.weight f4 [128, 3]
-0.5518293 -0.23230794 0.44707984 0.009006083 -0.009444416 -0.5195481 -0.48322457 0.30196896
0.051186346 -0.2890375 -0.15712589 -0.5761994 0.19194473 -0.057886098 -0.043792818 0.053146083
0.41139874 -0.5508436 -0.4919246 0.16872421 0.3308933 -0.26404378 -0.41329867 -0.013770342
-0.36941496 0.18886495 -0.031557858 0.28493604 0.124583654 0.09452032 -0.08469069 0.21488088
-0.14774677 -0.30509442 0.41177636 0.03192371 -0.46194872 -0.07229245 -0.39284015 0.43466303
-0.088010535 0.006846087 0.41663322 -0.3918018 -0.0047108172 0.20246683 -0.5550475 -0.47010642
-0.38694873 -0.3254592 0.1465863 -0.37586543 -0.32771495 0.2772711 -0.24210253 0.17434824
0.43172812 0.13157438 0.14036152 -0.29350525 -0.11288156 0.357354 -0.18997884 0.3266618
0.302806 0.09769431 0.030798988 0.5040031 -0.43912402 0.46407893 0.41851303 -0.2564104
0.2545537 -0.005058288 0.12724417 0.32645234 0.32869765 0.14205298 0.153188 -0.49754733
-0.38446882 -0.36534387 -0.12771606 -0.54178035 -0.33858988 0.29999894 -0.510047 0.08309601
-0.04781786 0.066096745 0.06285171 0.32636815 -0.19478025 -0.15096731 0.15486574 0.061509017
0.39976224 -0.36032045 -0.11250497 -0.26630694 0.22407456 0.36317483 -0.1733511 -0.04358792
0.5557523 -0.10386816 0.3155741 -0.49535197 -0.5366859 0.13936299 0.037274957 -0.068362415
0.1054495 -0.2353127 0.1833054 -0.22637191 -0.39928886 0.2205539 -0.46464846 0.24119754
0.4766564 0.47395584 -0.3196818 0.3453999 -0.24348834 -0.42913052 -0.16286477 0.00059980154
-0.5335619 0.027736934 -0.46115586 -0.4848596 -0.4286555 -0.080072284 -0.43067092 -0.5255858
-0.31290212 0.24382913 -0.49605384 -0.08537716 0.32457 0.019772334 -0.020051695 0.5097539
-0.06751042 0.08750523 0.048460316 0.2615274 0.46091917 0.36875686 0.26040384 -0.29538804
0.077225514 -0.25395143 -0.35471368 0.14947808 0.34885284 0.08876343 -0.5329359 -0.40635037
-0.3157972 0.487669 -0.4983571 -0.27505946 0.41857946 0.094223246 0.5765808 -0.40464097
-0.47870356 0.31634104 0.32070595 -0.45346472 0.33346078 0.43931922 -0.332163 -0.2921473
-0.28264973 0.13024704 0.5601675 -0.5526005 0.52871263 -0.17364965 0.4665417 -0.06332115
0.25708866 0.50195056 0.14211635 -0.11908381 0.28090528 0.12029072 0.20230006 0.21242367
-0.38865733 0.57268023 0.3426797 0.28432122 -0.52324873 -0.3880383 0.07960774 -0.5595406
-0.21914825 -0.5071415 0.13874197 -0.0043777823 -0.12327683 0.12035674 0.42664123 0.45420143
-0.19495347 -0.43029487 0.32991353 -0.053139217 -0.055116005 0.2578281 -0.11843323 0.45446914
0.18382491 0.1549041 -0.28674126 0.016472058 0.2927025 -0.07011664 -0.1317166 0.14477663
-0.09375883 -0.42254034 -0.12434837 -0.51188487 -0.49425653 0.35249925 -0.5091322 -0.41877902
-0.45701697 -0.15306774 -0.37577128 -0.5557404 0.33100122 -0.44299555 0.45017362 0.12341535
0.543975 -0.45003483 0.5271726 -0.4393954 0.078496315 0.55412084 -0.545078 -0.21178877
-0.50909746 0.051053923 -0.35987782 0.24789366 0.42045918 -0.4887245 -0.04281977 -0.2787387
00000000: af44 0dbf 22e2 6dbe a6e7 e43e 408e 133c
00000010: c0bc 1abc 1b01 05bf 3669 f7be ad9b 9a3e
00000020: c6a8 513d b9fc 93be 9ce5 20be ce81 13bf
00000030: 298d 443e f919 6dbd 1960 33bd b5af 593d
00000040: dba2 d23e 1604 0dbf 8bdd fbbe 0ac6 2c3e
00000050: d96a a93e bf30 87be e29b d3be 009d 61bc
00000060: f523 bdbe d065 413e d042 01bd 23e3 913e
00000070: b725 ff3d df93 c13d 5072 adbd bc09 5c3e
00000080: ee4a 17be 5635 9cbe 5ad4 d23e 70c2 023d
00000090: 8b84 ecbe 100e 94bd 5822 c9be 278c de3e
000000a0: de3e b4bd 2455 e03b f350 d53e 3f9a c8be
000000b0: 335d 9abb 7753 4f3e 9817 0ebf cab1 f0be
000000c0: 251e c6be 97a2 a6be b81a 163e 6f71 c0be
000000d0: 41ca a7be 7af6 8d3e bae9 77be 5888 323e
000000e0: 780b dd3e 6fbb 063e eeba 0f3e 5246 96be
000000f0: 732e e7bd 1af7 b63e d089 42be 3740 a73e
00000100: 6309 9b3e f413 c83d 294e fc3c 5906 013f
00000110: ddd4 e0be c19b ed3e 5747 d63e 3948 83be
00000120: dd54 823e ffbf a5bb 4c4c 023e c324 a73e
00000130: 0f4b a83e 5676 113e 51dd 1c3e 86be febe
00000140: 19d9 c4be 5a0e bbbe 00c8 02be 1eb2 0abf
00000150: a75b adbe 7699 993e 7192 02bf 3e2e aa3d
00000160: a9dc 43bd bb5d 873d 66b8 803d ba19 a73e
00000170: 7974 47be 2d97 1abe 2095 1e3e e1f0 7b3d
00000180: a3ad cc3e ec7b b8be 0169 e6bd 6259 88be
00000190: cd73 653e 0df2 b93e f382 31be 3f89 32bd
000001a0: c845 0e3f d4b8 d4bd ee92 a13e c69e fdbe
000001b0: 3f64 09bf 2cb5 0e3e a0ad 183d 9801 8cbd
000001c0: e8f5 d73d d0f5 70be 69b4 3b3e 0ace 67be
000001d0: 976f ccbe e2d8 613e 67e6 edbe 7dfc 763e
000001e0: 4f0c f43e 57aa f23e 55ad a3be 41d8 b03e
000001f0: 0255 79be ffb6 dbbe 06c6 26be 003c 1d3a
00000200: 8397 08bf 9138 e33c 9f1c ecbe 843f f8be
00000210: bc78 dbbe f0fc a3bd e680 dcbe ca8c 06bf
00000220: b534 a0be 58ae 793e c5fa fdbe 38da aebd
00000230: 0a2e a63e 97f9 a13c 7443 a4bc 3b7f 023f
00000240: e742 8abd f135 b33d 537e 463d ebe6 853e
00000250: 99fd eb3e b3cd bc3e a753 853e 1a3d 97be
00000260: 6928 9e3d ec05 82be 089d b5be c810 193e
00000270: d79c b23e 9ac9 b53d 7d6e 08bf 280d d0be
00000280: 2cb0 a1be c0af f93e a928 ffbe 98d4 8cbe
00000290: 0c50 d63e 1ef8 c03d cd9a 133f 1a2d cfbe
000002a0: a218 f5be 74f7 a13e 9233 a43e 872c e8be
000002b0: 5fbb aa3e 73ee e03e 4511 aabe 5594 95be
000002c0: 77b7 90be 7b5f 053e 2367 0f3f 3a77 0dbf
000002d0: b659 073f 37d1 31be 8ede ee3e 85ae 81bd
000002e0: 20a1 833e d57f 003f f386 113e 36e2 f3bd
000002f0: d1d2 8f3e fb5a f63d bf27 4f3e 9785 593e
00000300: 18fe c6be 2c9b 123f b773 af3e 8d92 913e
00000310: a1f3 05bf f5ac c6be 6209 a33d 0e3e 0fbf
00000320: 6668 60be 06d4 01bf 6012 0e3e 8073 8fbb
00000330: 9078 fcbd 987d f63d b870 da3e 178d e83e
00000340: e2a1 47be 9c4f dcbe 6dea a83e 82a8 59bd
00000350: 52c1 61bd 0b02 843e 1f8d f2bd 2eb0 e83e
00000360: 993c 3c3e 2e9f 1e3e c0cf 92be 69f0 863c
00000370: 1add 953e 5099 8fbd b7e0 06be 5340 143e
00000380: a104 c0bd 3557 d8be 5caa febd e30a 03bf
00000390: 310f fdbe c87a b43e 7d56 02bf 346a d6be
000003a0: 21fe e9be cabd 1cbe 1865 c0be 0145 0ebf
000003b0: fe78 a93e 50d0 e2be 287d e63e 30c1 fc3d
000003c0: f241 0b3f f76a e6be c9f4 063f 6ff8 e0be
000003d0: adc2 a03d ddda 0d3f 3b8a 0bbf 28df 58be
000003e0: 3654 02bf eb1d 513d e841 b8be d6d7 7d3e
000003f0: 6d46 d73e 193a fabe c863 2fbd d7b6 8ebe

encoder.embed.bias f4 [128]
0.40590113 -0.2638616 0.5410084 0.5755919 0.44723776 0.36871305 0.31857327 -0.0056915283
-0.17017314 -0.52167726 -0.5273886 -0.3264436 0.4029811 -0.117406234 0.11157308 0.18366054
0.1047923 -0.21458778 0.1307841 -0.19878337 0.120515235 -0.20465037 -0.35124025 0.41718027
0.2911495 0.37478265 0.11005697 0.3326637 0.44173884 -0.010600779 0.45293534 0.27374303
0.24718393 0.075629614 0.010154667 -0.1385561 0.2665847 -0.28588873 -0.26624978 -0.1943988
-0.19551522 0.0589408 -0.32377863 0.2219385 0.4355899 0.34611076 -0.26416093 -0.39933336
-0.015466561 -0.31813353 0.5460945 -0.33626673 -0.33344558 -0.0008981824 -0.41658968 -0.29419214
0.049806245 -0.29429826 0.42811465 0.04051813 0.46999353 -0.55280393 -0.22820134 -0.34339654
-0.35330167 0.06629804 -0.068608634 -0.48650506 -0.47672948 0.47937447 -0.35400146 0.25385273
0.4224042 -0.04673171 0.52622855 -0.49464905 0.446656 -0.46480897 -0.27388743 -0.31523165
-0.22839689 -0.14154589 0.29456705 0.44313213 0.27993467 -0.13421437 -0.4913419 -0.39102957
0.46400845 0.22393464 0.2228817 -0.12305698 -0.10179168 0.5083671 -0.26825672 0.5553159
0.19121379 0.08205557 0.094728075 -0.21989612 -0.48068276 0.19920516 0.5519652 0.51631206
0.10653353 0.46016186 0.04286474 -0.4606226 -0.2068841 0.458355 0.43072462 0.4432215
-0.12634131 0.09494838 0.22166461 0.032469306 -0.2931521 -0.15615094 -0.31646943 0.24439082
-0.26195547 0.32440913 0.53920007 0.38656288 0.28454384 -0.5674402 -0.073034376 0.49536654
00000000: 46d2 cf3e de18 87be 877f 0a3f fe59 133f
00000010: 59fc e43e f5c7 bc3e 091c a33e 0080 babb
00000020: de41 2ebe a48c 05bf f002 07bf 9e23 a7be
00000030: 8a53 ce3e ae72 f0bd 6d80 e43d 8211 3c3e
00000040: 589d d63d e6bc 5bbe 44ec 053e de8d 4bbe
00000050: b1d0 f63d de8f 51be c3d5 b3be a798 d53e
00000060: 8c11 953e 83e3 bf3e 8c65 e13d e652 aa3e
00000070: 982b e23e e4ae 2dbc 24e7 e73e 0c28 8c3e
00000080: c91d 7d3e b3e3 9a3d c35f 263c a6e1 0dbe
00000090: ca7d 883e 0260 92be e451 88be 7b10 47be
000000a0: 2435 48be e96b 713d 50c6 a5be d943 633e
000000b0: a405 df3e 6e35 b13e 1a40 87be 6c75 ccbe
000000c0: 7567 7dbc 66e2 a2be d9cc 0b3f 272b acbe
000000d0: 61b9 aabe 0074 6bba 3e4b d5be 5aa0 96be
000000e0: a201 4c3d 43ae 96be d831 db3e 57f6 253d
000000f0: fea2 f03e 8f84 0dbf 9dad 69be acd1 afbe
00000100: f5e3 b4be 44c7 873d af82 8cbd 3117 f9be
00000110: e315 f4be 9270 f53e ae3f b5be fcf8 813e
00000120: 5d45 d83e c069 3fbd eab6 063f a442 fdbe
00000130: 18b0 e43e 71fb edbe f93a 8cbe 0b66 a1be
00000140: e0e0 69be 68f1 10be 7ed1 963e 37e2 e23e
00000150: 9953 8f3e 7e6f 09be 2a91 fbbe 0735 c8be
00000160: 8492 ed3e 1f4f 653e 1a3b 643e 4c05 fcbd
00000170: 2878 d0bd 5924 023f f258 89be 2f29 0e3f
00000180: 8ccd 433e c00c a83d cb00 c23d 732c 61be
00000190: 0d1c f6be 70fc 4b3e 974d 0d3f 072d 043f
000001a0: 402e da3d 569a eb3e f092 2f3d bad6 ebbe
000001b0: 6dd9 53be 82ad ea3e f087 dc3e eeed e23e
000001c0: 9e5f 01be 4c74 c23d 0cfc 623e 89fe 043d
000001d0: 0818 96be 08e6 1fbe 4808 a2be 9641 7a3e
000001e0: 071f 86be f418 a63e 0409 0a3f 92eb c53e
000001f0: bbaf 913e c343 11bf 0c93 95bd afa0 fd3e

encoder.gru.weight_ih f4 [384, 128]
-0.017758725 -0.033801384 -0.0649189 0.01954751 -0.0873948 -0.02942082 0.0009669368 0.08779903
0.07118498 -0.02998916 -0.01459603 -0.01330371 -0.037920248 -0.03357252 -0.0109448135 -0.001320382
-0.06304366 0.010688985 0.0018496191 -0.05782902 -0.0023725256 0.072719544 0.008851503 0.080824904
-0.035638493 -0.0066345297 0.0069537056 0.0034198703 0.0036069143 -0.023365568 0.081238575 0.083452545
-0.07735186 0.08721792 5.614042e-05 0.01410717 -0.06834705 0.08416167 0.046242036 -0.08296429
0.022961732 0.0027315228 -0.0022937977 0.021755118 0.026542984 -0.037729442 0.042969372 -0.046860307
-0.072996 -0.045796603 0.061560396 0.029300965 -0.050335634 -0.07751837 -0.025301874 0.033733193
-0.020764207 -0.00015812878 0.02202465 -0.002791553 -0.087918736 -0.087794006 0.08778649 0.0464819
-0.033944473 0.07526611 -0.0046569547 -0.06338721 0.08726925 -0.035404604 0.05375239 0.031256743
-0.041687682 -0.068121985 0.08438947 0.048910417 0.051159885 0.07296347 0.031267885 0.070183486
0.041823395 0.017394142 -0.02120135 0.08439431 -0.04502658 -0.043547902 0.07736715 -0.07438805
0.009777206 0.026277566 -0.008994801 0.03798384 0.05510687 0.017622877 0.044640202 0.04541284
0.059919693 -0.049625557 0.06463924 -0.019164387 0.08434619 0.0385676 -0.04100116 -0.04962976
-0.012624624 -0.053589582 0.05467915 -0.012969285 -0.04027331 -0.0074168444 -0.036262337 0.034260217
0.07845491 0.013210384 -0.0641086 0.06685466 -0.05722765 -0.060195692 -0.00852102 -0.0844799
-0.025604313 0.06790004 0.054720934 -0.029278709 0.08210067 0.036827218 0.026994454 -0.0030664043
-0.027789874 0.03848343 -0.036065742 0.032171763 0.012740409 0.059217036 0.03820425 0.00259121
-0.0016347088 0.009276935 0.076840065 -0.048951603 0.08731359 -0.06884932 0.06927544 0.06239482
0.02667978 -0.07006107 0.042430773 0.079910204 0.03633202 -0.04002067 -0.08595458 -0.075007185
-0.024218347 0.056031033 -0.022105604 0.063446976 -0.049362827 0.033916492 -0.007153801 -0.008092141
-0.033265393 -0.048988134 0.057926316 -0.017475234 -0.07413455 -0.03782918 -0.040207617 0.021774827
0.05106638 -0.07723975 0.07885054 0.04783634 -0.050741963 -0.039680317 -0.07802946 0.045921396
0.022121722 -0.039964747 -0.07762136 -0.015986133 0.050105654 -0.021539127 0.0053899414 -0.0012068849
-0.02569456 0.07220171 -0.0095898835 0.008175274 -0.047813587 0.08061937 -0.033483822 -0.016395424
-0.036555856 0.030457944 0.076337285 0.012378782 -0.04177071 -0.04576289 -0.005083134 -0.0005335593
0.03195007 0.011073768 -0.041106667 0.03371173 0.019316908 0.07330954 0.054374512 -0.0728154
-0.008871119 0.04389796 0.041727357 0.07870142 -0.08708517 0.004109611 0.081979126 -0.03842741
-0.066840515 0.05963413 -0.0014140636 -0.07234732 -0.063657716 -0.053501487 -0.0038570233 0.047944862
-0.009761707 -0.004674012 -0.027950305 0.035954863 -0.06814801 0.06117607 0.019508 -0.08596247
-0.07127309 0.07145791 -0.07686488 0.056442853 0.035802506 -0.061999377 -0.019985994 0.06455798
-0.00595143 -0.08475284 0.08501115 0.043878507 -0.057033163 0.0049698465 0.066542864 0.08174815
0.083499506 -0.0647859 -0.055226784 -0.025219414 -0.08073693 -0.08295494 0.027079508 0.032562498
00000000: bf7a 91bc 5273 0abd 33f4 84bd 1a22 a03c
00000010: 0bfc b2bd ee03 f1bc 087a 7d3a facf b33d
00000020: 6ec9 913d d4ab f5bc 3024 6fbc cef7 59bc
00000030: 4352 1bbd 5783 09bd e051 33bc ab10 adba
00000040: 091d 81bd da20 2f3c eb6e f23a 1fde 6cbd
00000050: 607c 1bbb fced 943d e505 113c 8787 a53d
00000060: abf9 11bd 7866 d9bb e9db e33b e71f 603b
00000070: fb61 6c3b 2669 bfbc 6960 a63d 2be9 aa3d
00000080: a76a 9ebd 4f9f b23d 5178 6b38 c221 673c
00000090: 8af9 8bbd f45c ac3d 4a68 3d3d 2fe9 a9bd
000000a0: 3e1a bc3c 5903 333b 8a53 16bb ca37 b23c
000000b0: ac70 d93c 308a 1abd a700 303d 98f0 3fbd
000000c0: ed7e 95bd 3895 3bbd c126 7c3d 9408 f03c
000000d0: bd2c 4ebd f3c1 9ebd e045 cfbc d12b 0a3d
000000e0: b319 aabc 5fcf 25b9 0a6d b43c 7df2 36bb
000000f0: bd0e b4bd 58cd b3bd 67c9 b33d ce63 3e3d
00000100: 5c09 0bbd 1e25 9a3d 5e99 98bb 27d1 81bd
00000110: 38ba b23d 6b04 11bd 772b 5c3d 1207 003d
00000120: b4c0 2abd 8a83 8bbd 63d4 ac3d 4a56 483d
00000130: 078d 513d df6d 953d c112 003d 5cbc 8f3d
00000140: 024f 2b3d 297e 8e3c 74ae adbc edd6 ac3d
00000150: cb6d 38bd 495f 32bd ab72 9e3d c358 98bd
00000160: 9330 203c 0d44 d73c ee5e 13bc f194 1b3d
00000170: beb7 613d da5d 903c a5d8 363d d002 3a3d
00000180: 5a6e 753d 2b44 4bbd 9461 843d a2fe 9cbc
00000190: b2bd ac3d 0ff9 1d3d d5f0 27bd 9348 4bbd
000001a0: 83d7 4ebc c080 5bbd 3ff7 5f3d 207d 54bc
000001b0: a0f5 24bd 0009 f3bb d187 14bd 7154 0c3d
000001c0: f8ac a03d 5e70 583c 5f4b 83bd 19eb 883d
000001d0: 8a67 6abd c28f 76bd c09b 0bbc cc03 adbd
000001e0: 23c0 d1bc 2d0f 8b3d 0f23 603d e7d9 efbc
000001f0: 6524 a83d 23d8 163d 7923 dd3c baf5 48bb
00000200: 97a7 e3bc cda0 1d3d acb9 13bd 8ac6 033d
00000210: 26bd 503c 908d 723d 0f7c 1c3d 4ad1 293b
00000220: ba43 d6ba 49fe 173c 535e 9d3d 7a81 48bd
00000230: 78d1 b23d df00 8dbd 48e0 8d3d b691 7f3d
00000240: 8e8f da3c 2e7c 8fbd e4cb 2d3d f6a7 a33d
00000250: e2d0 143d b7ec 23bd f408 b0bd 5e9d 99bd
00000260: 8e65 c6bc cc80 653d d016 b5bc 7df0 813d
00000270: ad30 4abd 05ec 0a3d 6f6a eabb e694 04bc
00000280: 4b41 08bd c8a7 48bd 2544 6d3d 3928 8fbc
00000290: dbd3 97bd c5f2 1abd beb0 24bd 1f61 b23c
000002a0: fb2a 513d e02f 9ebd 647c a13d 0af0 433d
000002b0: ced6 4fbd d487 22bd e9cd 9fbd 1318 3c3d
000002c0: 9d38 b53c 13b2 23bd f3f7 9ebd 5af5 82bc
000002d0: 963b 4d3d d372 b0bc 1b9e b03b 5630 9eba
000002e0: 667d d2bc 7dde 933d e31e 1dbc 96f1 053c
000002f0: 2ed8 43bd c51b a53d 5526 09bd b24f 86bc
00000300: 98bb 15bd f082 f93c b956 9c3d 60d0 4a3c
00000310: c417 2bbd de71 3bbd 6b90 a6bb 8fde 0bba
00000320: 14de 023d c06e 353c 775f 28bd 5015 0a3d
00000330: 7e3e 9e3c 5023 963d cfb7 5e3d 3e20 95bd
00000340: 2b58 11bc 59ce 333d 4eea 2a3d 362e a13d
00000350: b659 b2bd eaa9 863b ace4 a73d 0f66 1dbd
00000360: aee3 88bd eb42 743d 1a58 b9ba d52a 94bd
00000370: fa5e 82bd 6024 5bbd 1dc6 7cbb d561 443d
00000380: 91ef 1fbc 7428 99bb 0af8 e4bc 6845 133d
00000390: 2f91 8bbd c293 7a3d 3ecf 9f3c 170d b0bd
000003a0: a0f7 91bd 8658 923d 566b 9dbd 9f30 673d
000003b0: a6a5 123d 0ff3 7dbd abb9 a3bc f936 843d
000003c0: 3704 c3bb e692 adbd 531a ae3d f3b9 333d
000003d0: 9b9b 69bd 18da a23b a047 883d 936b a73d
000003e0: ca01 ab3d 78ae 84bd 7b35 62bd f298 cebc
000003f0: 6759 a5bd 48e4 a9bd d8d5 dd3c 4160 053d

encoder.gru.weight_hh f4 [384, 128]
-0.03596279 -0.08733746 -0.076516576 0.017011564 -0.07069673 -0.015138451 0.05228472 -0.008020324
-0.011694194 0.087832816 0.0383238 0.05585102 0.06378525 0.035456654 -0.02434459 0.051991574
0.06795775 -0.047748994 -0.06554676 0.08339842 -0.0038542554 -0.057346195 -0.014785115 0.010030346
-0.062179744 0.07985932 -0.044434547 0.07963371 0.070167065 0.045168627 -0.06952693 0.0020050525
-0.06543358 0.03070693 0.036905892 -0.0007495837 -0.008023957 0.016621647 0.05616127 -0.021494912
-0.08412337 0.0052604773 -0.016878378 -0.006114045 -0.009559852 0.022078482 0.0673102 -0.012098176
-0.06472037 -0.053593684 -0.022702437 0.05006625 -0.029572228 -0.063456275 0.051023174 -0.08272523
0.018087246 -0.02662261 -0.042942308 0.03046011 -0.07222433 -0.08645254 -0.08200388 0.06666963
-0.020266239 -0.07112683 -0.045340616 -0.043890636 0.0019122424 0.039725307 0.06555093 -0.00079742394
0.036309693 0.053032134 0.05502246 -0.07506857 0.048469122 0.060451075 -0.04129547 0.07559817
-0.013454132 0.03215315 0.028997565 0.025945524 -0.039472144 0.004662317 -0.081891805 -0.02674693
-0.036645968 -0.07597345 0.059909005 0.00627136 0.031523407 -0.038412575 0.04454441 -0.0211079
0.045980897 -0.022513663 -0.0004418988 0.060367417 -0.009236382 -0.024527892 -0.0573494 0.05235494
0.06815686 -0.03124657 -0.0043706307 -0.056862652 -0.031690966 0.035869896 0.0027163671 -0.054114275
-0.07353724 -0.060034566 0.036138155 0.03731654 0.016026301 -0.058634855 0.06390178 0.046228148
0.029127672 -0.054939453 0.040352587 0.05336978 0.046602484 0.081191696 -0.018952176 -0.021137265
0.060315043 0.021235099 -0.0050589563 -0.026982045 -0.008474476 0.055755537 -0.082067125 -0.0677684
-0.06472013 0.033787943 0.032535486 -0.022595828 0.04288492 0.05603505 -0.022131557 0.02982676
0.050083835 0.063515045 0.045598734 -0.0019519033 0.08118161 -0.044637155 0.021105152 0.0430566
0.0045428546 0.040150397 0.056598775 0.06928366 0.0787719 -0.08621761 0.07927327 -0.047893837
-0.050916236 -0.011753447 -0.002183295 0.007586465 0.035732064 0.004435092 -0.08819121 0.066257775
-0.02823108 -0.053453557 -0.029599788 -0.08800523 0.041749187 0.023366787 0.0015959231 -0.019189278
0.049911194 0.067289084 0.07915824 0.04869033 -0.018284133 0.05406224 -0.03525818 -0.053098895
0.08670125 -0.08625373 0.02944452 -0.018843343 0.062051207 -0.040400263 -0.029330296 0.052867115
-0.015286959 0.06694239 -0.07364493 -0.030839788 -0.07698177 0.0055044224 -0.028009042 -0.017940298
0.07881473 0.04791492 -0.07166813 0.05926889 0.05328541 -0.010799263 0.016428042 -0.027447734
-0.043943666 0.076807804 -0.048283912 -0.009383887 -0.060200885 -0.076277345 0.032844458 0.022369266
0.059944734 -0.012402314 0.0070221154 -0.077317394 -0.016206011 -0.062268257 0.037177667 -0.061133236
0.029238371 0.042955592 0.06327804 -0.011113247 0.011222162 -0.074413635 0.07673483 0.032765254
-0.009840379 0.08091303 0.04124905 0.04073808 -0.02163681 -0.0019272047 -0.0031296916 0.025061645
0.077450894 0.086945236 0.054149773 -0.04827192 -0.0817867 -0.07972808 0.0068007167 -0.026692778
0.024966737 0.07023813 0.012056445 -0.07497242 0.06515669 -0.067933306 0.0005885613 -0.0018800953
00000000: b84d 13bd fbdd b2bd b9b4 9cbd d65b 8b3c
00000010: 72c9 90bd 4407 78bc 8128 563d ad67 03bc
00000020: 0199 3fbc b1e1 b33d 6bf9 1c3d 0ac4 643d
00000030: d7a1 823d ff3a 113d 4e6e c7bc 1ef5 543d
00000040: 6f2d 8b3d 7394 43bd 613d 86bd cacc aa3d
00000050: ad97 7cbb d8e3 6abd 443d 72bc 5256 243c
00000060: 30b0 7ebd 488d a33d 0001 36bd 0017 a33d
00000070: c0b3 8f3d bd02 393d 2364 8ebd 3367 033b
00000080: 0a02 86bd 1a8d fb3c a22a 173d b67f 44ba
00000090: ea76 03bc 1f2a 883c 5c09 663d 1916 b0bc
000000a0: e048 acbd 1560 ac3b 8644 8abc 5458 c8bb
000000b0: eda0 1cbc efdd b43c eed9 893d 6e37 46bc
000000c0: 1d8c 84bd 0d85 5bbd 76fa b9bc 4512 4d3d
000000d0: 7541 f2bc 5df5 81bd adfd 503d d86b a9bd
000000e0: b42b 943c a917 dabc 46e4 2fbd 7b87 f93c
000000f0: 59ea 93bd 070e b1bd a6f1 a7bd 168a 883d
00000100: 6205 a6bc f2aa 91bd 15b7 39bd abc6 33bd
00000110: 35a4 fa3a 01b7 223d 913f 863d 370a 51ba
00000120: 79b9 143d 3938 593d 3b5f 613d 8dbd 99bd
00000130: 8f87 463d 8c9b 773d 7025 29bd 37d3 9a3d
00000140: b86e 5cbc 05b3 033d 4d8c ed3c b58b d43c
00000150: 8bad 21bd 5ac6 983b e4b6 a7bd 611c dbbc
00000160: 151a 16bd f897 9bbd 2563 753d fb7f cd3b
00000170: b01e 013d 8156 1dbd 3374 363d 7aea acbc
00000180: 7756 3c3d 936e b8bc a7ae e7b9 d343 773d
00000190: 3254 17bc b8ee c8bc 34e7 6abd 2272 563d
000001a0: d395 8b3d cff8 ffbc 8237 8fbb d0e8 68bd
000001b0: 63ce 01bd 50ec 123d 1405 323b eea6 5dbd
000001c0: b19a 96bd cee6 75bd 9a05 143d 3ad9 183d
000001d0: 9749 833c 1a2b 70bd f0de 823d ba59 3d3d
000001e0: 289d ee3c 3108 61bd c148 253d 459a 5a3d
000001f0: 3fe2 3e3d d547 a63d 9841 9bbc 0f28 adbc
00000200: e80c 773d 3bf5 ad3c 9ac5 a5bb 7309 ddbc
00000210: 87d8 0abc eb5f 643d cf12 a8bd 29ca 8abd
00000220: fd8b 84bd 3a65 0a3d ee43 053d e31a b9bc
00000230: 19a8 2f3d 0285 653d 3d4d b5bc 4057 f43c
00000240: b524 4d3d 2d14 823d bdc5 3a3d 02d7 ffba
00000250: 8b42 a63d 73d5 36bd b6e4 ac3c 1e5c 303d
00000260: 3adc 943b be74 243d 1ed4 673d 97e4 8d3d
00000270: 2953 a13d dc92 b0bd 065a a23d 542c 44bd
00000280: 8b8d 50bd 8891 40bc 9d15 0fbb e297 f83b
00000290: c95b 123d 4054 913b 989d b4bd 28b2 873d
000002a0: de44 e7bc 1ef2 5abd 417b f2bc 163c b4bd
000002b0: 3201 2b3d b46b bf3c 4b2e d13a d532 9dbc
000002c0: ae6f 4c3d dcce 893d b71d a23d 836f 473d
000002d0: 9bc8 95bc 5e70 5d3d e26a 10bd 3a7e 59bd
000002e0: 6d90 b13d cca5 b0bd a235 f13c 5b5d 9abc
000002f0: 6829 7e3d bf7a 25bd 1746 f0bc 308b 583d
00000300: 2776 7abc 1719 893d 27d3 96bd b9a3 fcbc
00000310: 9ea8 9dbd 715e b43b 3873 e5bc 88f7 92bc
00000320: 9e69 a13d 6f42 443d bec6 92bd f0c3 723d
00000330: cd41 5a3d 64ef 30bc 1a94 863c 12da e0bc
00000340: 46fe 33bd 694d 9d3d 5ac5 45bd e0be 19bc
00000350: 3495 76bd 4c37 9cbd e987 063d c03f b73c
00000360: 9c88 753d 1333 4bbc c619 e63b 9558 9ebd
00000370: 78c2 84bc 000d 7fbd 9c47 183d d866 7abd
00000380: 4f85 ef3c 34f2 2f3d eb97 813d 5614 36bc
00000390: 29dd 373c 2d66 98bd 2727 9d3d dc34 063d
000003a0: 8a39 21bc bbb5 a53d c4f4 283d f9dc 263d
000003b0: ae3f b1bc 429a fcba 831b 4dbb 144e cd3c
000003c0: 939e 9e3d 5810 b23d 27cc 5d3d c7b8 45bd
000003d0: c97f a7bd 7a48 a3bd 8cd8 de3b d0aa dabc
000003e0: 0b87 cc3c 02d9 8f3d 6588 453c 248b 99bd
000003f0: df70 853d 9e20 8bbd ae49 1a3a 886d f6ba

encoder.gru.bias_ih f4 [384]
-0.049676932 -0.01863215 0.072036296 -0.005311784 0.011563213 0.08071422 -0.033932984 0.061650082
-0.021492513 -0.04674001 -0.025835326 0.08332094 0.030194337 0.038145732 -0.02451865 -0.058660895
0.05694553 -0.054344393 -0.038879063 0.006905837 0.028497696 -0.05933927 -0.035156433 0.05295026
-0.023761872 -0.014261643 0.048372816 -0.025269305 -0.01819536 0.029522948 0.009557727 0.0776246
-0.008493139 -0.017390402 -0.056409437 0.04837342 0.044418275 0.059776388 0.04191837 -0.02800785
0.051148262 -0.0104282955 -0.05719908 -0.031576473 -0.022965642 0.006047632 -0.032280132 -0.018231744
0.01329702 -0.033861753 -0.05305734 -0.012158903 0.046496682 0.04771761 -0.08275475 0.024203617
-0.07726012 0.05303422 0.08006108 -0.08810649 0.034707226 0.079514235 0.019381378 -0.0839071
0.064599894 0.07357899 0.048490953 0.05827918 0.061214603 -0.04925477 0.025879536 -0.025451172
0.077788435 0.007285933 -0.0146321235 0.02335886 0.045264315 0.062102973 0.074267074 -0.07597473
0.0014178286 0.0854594 0.008082991 -0.010228014 0.08581796 -0.06104663 0.08511863 -0.009375311
-0.08835745 -0.047509566 -0.044942368 -0.017064333 -0.051579036 -0.03605692 0.021210732 -0.05587523
-0.057883345 -0.008729258 -0.04313287 -0.003225378 -0.07044494 -0.040751632 0.07972733 0.07032158
0.04843378 -0.04416872 -0.049118612 -0.030748663 0.020362541 0.011768285 -0.0635053 0.086507306
0.03768661 0.056501586 -0.036415208 0.07746192 -0.06506157 -0.01604575 0.008422488 -0.041667078
-0.02567929 -0.0077788965 -0.04355857 0.018995926 -0.05635206 -0.08656206 0.010483885 -0.06710369
0.02897016 0.039977647 0.059213426 -0.047086682 0.0034495895 0.06795786 -0.049422976 -0.027461257
-0.070222415 -0.06057018 -0.05267369 -0.0018056653 0.001592677 0.053192914 0.061569665 -0.048025195
-0.07025314 0.04590573 0.07789451 0.051815115 -0.08591325 -0.0027740025 -0.08414241 -0.085409924
0.046100974 -0.030266788 0.015735809 -0.03899073 -0.053641483 -0.08405145 0.018208802 0.02512292
-0.06782257 -0.0311235 -0.038586 0.059675574 0.03477242 0.0753863 -0.05289154 0.0070628473
-0.0033050547 0.07099977 -0.06419145 -0.041363005 0.04573556 0.07925515 0.029911717 0.056617055
0.01570323 0.032194182 0.0091922 -0.04917678 -0.020659603 -0.053119235 0.015503477 -0.014557324
0.017010637 0.011997978 -0.06603029 0.013148685 -0.07161354 -0.058472104 0.030145911 0.024484482
-0.043690186 0.08012401 0.051929224 0.015523679 0.011238653 0.0023987137 0.08050069 -0.057125602
0.032799665 -0.06777729 0.08221932 -0.016818685 0.024714986 -0.009679789 -0.017746901 0.042779684
-0.055728566 0.06960233 0.043910258 0.039860353 0.053287365 0.07953784 -0.040947683 -0.024077037
0.0025116585 0.06261717 0.0053503085 -0.05254853 -0.05081889 -0.021490794 -0.027099192 0.030627832
0.07224891 0.00512861 0.052250158 0.047339574 -0.038371 0.07413395 0.032459594 -0.052361954
0.010134704 0.02870014 0.0079673035 0.06587858 0.021442713 -0.08721648 -0.02275595 -0.0069379853
0.082920074 0.08191798 -0.08706578 -0.0014382962 -0.023377366 0.0790577 -0.04767625 -0.016331492
-0.03831528 0.07329274 0.0113461185 0.04650083 -0.04335059 -0.013322878 0.013698501 0.05340299
00000000: 0a7a 4bbd 73a2 98bc c487 933d 790e aebb
00000010: a173 3d3c 7f4d a53d 50fd 0abd cc84 7c3d
00000020: 1111 b0bc 7472 3fbd 9ba4 d3bc 2ba4 aa3d
00000030: 1d5a f73c b33e 1c3d 56db c8bc 6846 70bd
00000040: b73f 693d 3a98 5ebd a73f 1fbd 5c4a e23b
00000050: 0074 e93c bc0d 73bd 3100 10bd 5fe2 583d
00000060: 42a8 c2bc aba9 69bc 9322 463d 9301 cfbc
00000070: 700e 95bc 1cda f13c 0398 1c3c a5f9 9e3d
00000080: cf26 0bbc 5176 8ebc 950d 67bd 3523 463d
00000090: f0ef 353d 16d8 743d 99b2 2b3d b870 e5bc
000000a0: d780 513d 71db 2abc 9549 6abd 5556 01bd
000000b0: 7122 bcbc 372b c63b 2c38 04bd bd5a 95bc
000000c0: bfdb 593c 9fb2 0abd a752 59bd 2336 47bc
000000d0: 4e73 3e3d 8a73 433d 537b a9bd aa46 c63c
000000e0: 8e3a 9ebd 693a 593d 10f7 a33d 2d71 b4bd
000000f0: 2a29 0e3d 5cd8 a23d b2c5 9e3c 7cd7 abbd
00000100: f34c 843d 95b0 963d 739e 463d 26b6 6e3d
00000110: 2abc 7a3d 5fbf 49bd 5201 d43c fa7e d0bc
00000120: 8b4f 9f3d d6be ee3b 93bb 6fbc 145b bf3c
00000130: 1367 393d b05f 7e3d 5619 983d a498 9bbd
00000140: 6fd6 b93a 5705 af3d 856e 043c 6693 27bc
00000150: 54c1 af3d 080c 7abd ad52 ae3d e89a 19bc
00000160: c0f4 b4bd 6499 42bd 7d15 38bd 80ca 8bbc
00000170: 8a44 53bd 6cb0 13bd 21c2 ad3c 6ddd 64bd
00000180: 1617 6dbd 2905 0fbc 18ac 30bd dd60 53bb
00000190: 7045 90bd 2feb 26bd 1548 a33d c304 903d
000001a0: 8062 463d 42ea 34bd 9930 49bd 9fe4 fbbc
000001b0: 58cf a63c c4cf 403c 110f 82bd be2a b13d
000001c0: 465d 1a3d 356e 673d 1d28 15bd 5ba4 9e3d
000001d0: 003f 85bd 6072 83bc 7afe 093c 19ab 2abd
000001e0: 605d d2bc 1de6 febb 796a 32bd 589d 9b3c
000001f0: 6bd1 66bd 7347 b1bd 9ac4 2b3c a96d 89bd
00000200: d452 ed3c 9abf 233d c789 723d f7dd 40bd
00000210: 8212 623b 7e2d 8b3d bf6f 4abd 6ef6 e0bc
00000220: c5d0 8fbd 7018 78bd 5ec0 57bd 13ac ecba
00000230: 5fc1 d03a d0e0 593d 7930 7c3d 11b6 44bd
00000240: e1e0 8fbd a607 3c3d 2887 9f3d 163c 543d
00000250: 49f3 afbd 0acc 35bb db52 acbd 66eb aebd
00000260: 60d4 3c3d 0ef2 f7bc 62e8 803c beb4 1fbd
00000270: 2cb7 5bbd 2b23 acbd a02a 953c 95ce cd3c
00000280: 8fe6 8abd b6f6 febc 5b0c 1ebd 606e 743d
00000290: 866d 0e3d 2264 9a3d cda4 58bd 756f e73b
000002a0: 9e99 58bb 5468 913d cf76 83bd 416c 29bd
000002b0: 3655 3b3d 8650 a23d 6b09 f53c 49e7 673d
000002c0: 0fa4 803c 0cde 033d e29a 163c 976d 49bd
000002d0: 543e a9bc 8e93 59bd 4c02 7e3c d881 6ebc
000002e0: e459 8b3c 2b93 443c e43a 87bd 956d 573c
000002f0: 1faa 92bd 7280 6fbd 8ff4 f63c ae93 c83c
00000300: 7bf4 32bd 0f18 a43d bdb3 543d 0757 7e3c
00000310: 5422 383c bd33 1d3b 8cdd a43d 89fc 69bd
00000320: f158 063d d2ce 8abd 9a62 a83d 57c7 89bc
00000330: 1577 ca3c fa97 1ebc f361 91bc c039 2f3d
00000340: a343 64bd ab8b 8e3d 3edb 333d 9c44 233d
00000350: da43 5a3d bce4 a23d c2b8 27bd 353d c5bc
00000360: a39a 243b 6e3d 803d a451 af3b 213d 57bd
00000370: 7827 50bd 760d b0bc 20ff ddbc 38e7 fa3c
00000380: 3df7 933d e60d a83b 4304 563d 24e7 413d
00000390: e92a 1dbd 8ad3 973d 5af4 043d 7d79 56bd
000003a0: 080c 263c 8e1c eb3c 4b89 023c 59eb 863d
000003b0: a1a8 af3c 8e9e b2bd b06a babc 0a58 e3bb
000003c0: 00d2 a93d 9dc4 a73d 8b4f b2bd 3685 bcba
000003d0: e481 bfbc 01e9 a13d 2c48 43bd 9fc9 85bc
000003e0: 7cf0 1cbd 811a 963d 12e5 393c a877 3e3d
000003f0: 6390 31bd 3348 5abc ad6f 603c 18bd 5a3d

encoder.gru.bias_hh f4 [384]
-0.015928581 0.066618204 0.0580848 -0.01081561 0.03773438 0.058352686 -0.045998517 0.06146519
0.042446136 -0.0069008176 0.07403244 -0.0031862608 0.08815804 0.08399318 0.065421104 -0.0035701073
-0.06320634 -0.009118094 0.016507596 0.01898834 0.08328627 -0.025281416 -0.07230425 -0.0141155515
0.02400523 0.064978205 0.07438456 0.05045053 -0.078271136 0.035752 0.0412335 0.011467714
0.036070198 -0.07905207 -0.015751379 0.03181852 -0.014392748 -0.061717235 -0.057624575 -0.073125996
-0.042005613 -0.004455888 0.058288086 -0.01597983 -0.05571871 -0.034172095 -0.02535263 0.030089362
0.023460254 -0.0551406 -0.08279987 -0.031266373 -0.008608527 3.0367668e-05 -0.04243349 0.014642436
-0.005772043 -0.077917784 -0.00022127596 -0.0605802 -0.088092126 0.068642735 0.02475978 0.0027029368
0.07317015 0.033251714 -0.07936089 0.048318513 -0.009434753 0.013623795 -0.0067226784 -0.050403316
0.06977943 -0.048534345 0.010620509 -0.06481385 0.020452658 0.04518333 0.08265941 -0.08344592
0.010888597 0.026537003 -0.05109719 0.049953893 -0.050178494 -0.048035342 0.017339153 -0.028777834
0.03140756 -0.035062738 0.046070024 -0.045894127 -0.009443942 0.0057415036 0.037363343 0.040603016
0.0048231436 -0.050833043 -0.027507879 -0.051363558 -0.027158592 0.03100619 -0.048204724 0.019839246
0.023471223 0.06670052 -0.01641129 -0.0008996191 -0.04425507 -0.040389854 0.039207138 -0.07899598
0.013622052 -0.010862986 -0.008477531 -0.025048677 -0.03520176 0.014487162 0.087740235 0.039665077
0.048627906 0.041377857 0.013756864 0.027746744 -0.05350145 -0.069794714 -0.054474607 -0.02775501
0.038007468 -0.026493886 -0.021166962 0.060072623 0.074357584 0.08154525 0.05667796 0.06681216
0.084957466 -0.05551227 -0.00079677027 -0.035385523 0.06180959 -0.062631056 -0.06899975 0.05994176
-0.04878408 0.05632908 0.0021023874 0.051789217 -0.01251286 -0.059870813 -0.015366204 0.07731311
0.023928352 0.05960308 -0.04549374 0.030200727 0.014111442 -0.02124293 -0.056526147 0.05376788
-0.030187463 -0.05276498 -0.014507056 0.022711528 0.08023418 0.0071858456 0.03883975 0.013485165
0.06426639 -0.03298167 0.07572393 0.06564165 0.05459491 0.059362188 -0.005102144 -0.050932057
0.07628064 0.007942995 0.039972827 0.021997778 -0.0776689 0.08086961 0.045585547 0.0749169
0.011969843 -0.038784966 -0.07982171 -0.03549678 0.07902089 -0.011725068 -0.007032077 -0.029478755
-0.0806365 -0.04024895 0.082738295 -0.05771453 0.054166447 -0.074060515 -0.05424826 0.08700385
0.021569507 0.031274993 -0.040524505 -0.030937279 0.06546349 -0.042733215 0.062303472 -0.003664589
-0.07516114 -0.07499319 -0.038507186 -0.011748344 -0.0042226966 -0.05032115 -0.06070028 -0.0662499
-0.03422487 0.038553674 0.023909355 0.086282045 0.05657355 0.00072802993 0.076677755 0.00685224
0.085932575 0.039359156 0.024314122 0.05486341 -0.06415574 -0.06858675 -0.059051998 0.03430505
9.57771e-05 -0.04667124 0.043358218 -0.071143046 0.058926217 -0.05685317 -0.0061460068 0.027869772
-0.0867129 0.013991448 -0.021306494 -0.066021845 0.07089552 0.04892946 0.05171868 -0.087528445
0.0007257771 -0.060625542 0.012915285 -0.02469627 -0.031658296 -0.053832397 -0.06189543 -0.0061725583
00000000: a87c 82bc 206f 883d 54ea 6d3d f533 31bc
00000010: 5e8f 1a3d 3a03 6f3d f168 3cbd ecc2 7b3d
00000020: 00dc 2d3d 4120 e2bb 529e 973d 96d0 50bb
00000030: 348c b43d 9e04 ac3d 80fb 853d 76f8 69bb
00000040: 5372 81bd 0f64 15bc f03a 873c 6f8d 9b3c
00000050: fe91 aa3d f91a cfbc 4014 94bd ea44 67bc
00000060: 9ea6 c43c 4b13 853d ef56 983d 37a5 4e3d
00000070: 9e4c a0bd b070 123d 75e4 283d 14e3 3b3c
00000080: 58be 133d 0de6 a1bd 0909 81bc 2354 023d
00000090: 8fcf 6bbc 36cb 7cbd bf07 6cbd 15c3 95bd
000000a0: 140e 2cbd b302 92bb 7dbf 6e3d 22e8 82bc
000000b0: 4d39 64bd 0af8 0bbd 52b0 cfbc f77d f63c
000000c0: b82f c03c 1cdb 61bd fa92 a9bd 2b11 00bd
000000d0: c70a 0dbc 12be fe37 bdce 2dbd d4e6 6f3c
000000e0: 6823 bdbb 5c93 9fbd 5006 68b9 f222 78bd
000000f0: a569 b4bd 9094 8c3d 06d5 ca3c c123 313b
00000100: 3bda 953d f332 083d f687 a2bd a2e9 453d
00000110: 3994 1abc 5636 5f3c ea49 dcbb b573 4ebd
00000120: 85e8 8e3d f3cb 46bd a501 2e3c 20bd 84bd
00000130: 558c a73c 2812 393d 5649 a93d b2e5 aabd
00000140: 1666 323c 2164 d93c 494b 51bd 749c 4c3d
00000150: f787 4dbd b5c0 44bd d70a 8e3c 7ebf ebbc
00000160: 37a5 003d f29d 0fbd ecb3 3c3d 7bfb 3bbd
00000170: c4ba 1abc 3923 bc3b 4e0a 193d 594f 263d
00000180: 760b 9e3b 4f36 50bd 3458 e1bc 9862 52bd
00000190: b27b debc b200 fe3c 5172 45bd ea85 a23c
000001a0: b946 c03c 489a 883d f870 86bc 6ad4 6bba
000001b0: ce44 35bd d56f 25bd aa97 203d a5c8 a1bd
000001c0: 072f 5f3c aafa 31bc 58e5 0abc e232 cdbc
000001d0: b82f 10bd 905b 6d3c 27b1 b33d d977 223d
000001e0: 0e2e 473d d47b 293d 7864 613c 244d e33c
000001f0: 5624 5bbd 88f0 8ebd c420 5fbd 7a5e e3bc
00000200: b8ad 1b3d b509 d9bc 5666 adbc b60e 763d
00000210: ca48 983d 3201 a73d 2627 683d d0d4 883d
00000220: 2efe ad3d d660 63bd 59de 50ba 69f0 10bd
00000230: 0d2c 7d3d b644 80bd be4f 8dbd 7e85 753d
00000240: d1d1 47bd 52b9 663d 35c8 093b ee20 543d
00000250: bd02 4dbc 193b 75bd 88c2 7bbc 5656 9e3d
00000260: 6405 c43c 5c22 743d a557 3abd 8467 f73c
00000270: ad33 673c a705 aebc f687 67bd b53b 5c3d
00000280: b34b f7bc 1720 58bd 01af 6dbc 870d ba3c
00000290: d151 a43d 3e77 eb3b 6e16 1f3d e2f0 5c3c
000002a0: 199e 833d ca17 07bd 2615 9b3d 216f 863d
000002b0: ea9e 5f3d c425 733d e32f a7bb 229e 50bd
000002c0: 0639 9c3d 5623 023c 8cba 233d af34 b43c
000002d0: df10 9fbd f79e a53d e9b7 3a3d 086e 993d
000002e0: 291d 443c fcdc 1ebd 9179 a3bd 1265 11bd
000002f0: b4d5 a13d 801a 40bc 566d e6bb 6e7d f1bc
00000300: c024 a5bd 15dc 24bd b272 a93d 1266 6cbd
00000310: a3dd 5d3d 0aad 97bd 6c33 5ebd 132f b23d
00000320: 89b2 b03c 351a 003d 06fd 25bd 2d70 fdbc
00000330: b911 863d 0609 2fbd ed31 7f3d 9a29 70bb
00000340: 15ee 99bd 0896 99bd b6b9 1dbd 207c 40bc
00000350: 8c5e 8abb 8d1d 4ebd dba0 78bd 07ae 87bd
00000360: 612f 0cbd 75ea 1d3d 8ddd c33c a4b4 b03d
00000370: abb9 673d 43d9 3e3a 3a09 9d3d c188 e03b
00000380: 6bfd af3d 1137 213d 692e c73c 74b8 603d
00000390: 1664 83bd 3677 8cbd 82e0 71bd 7483 0c3d
000003a0: f0db c838 582a 3fbd 6398 313d 72b3 91bd
000003b0: 9e5c 713d dfde 68bd 7164 c9bb 264f e43c
000003c0: 8896 b1bd 633c 653c f58a aebc 7636 87bd
000003d0: ac31 913d 426a 483d f7d6 533d 1d42 b3bd
000003e0: 1442 3e3a 7d52 78bd a29a 533c d54f cabc
000003f0: 21ac 01bd 5c7f 5cbd 1086 7dbd 2c43 cabb

decoder.hidden.weight f4 [32, 128]
-0.080839805 0.013893202 -0.06826031 -0.008023791 -0.047769237 -0.036480002 0.028167926 -0.046015948
-0.072364755 -0.047345273 0.05451452 -0.070510246 0.03334295 0.08528585 -0.015909128 -0.011567287
0.00540445 -0.03946831 0.028487451 0.050876267 0.0070578605 0.074285425 0.06920495 -0.050118912
0.045476533 -0.0052074045 0.008090541 -0.063411586 0.023786202 -0.050882794 -0.044713307 -0.07940535
0.074550726 0.03986632 -0.053503275 0.0071033016 -0.08151297 -0.0010224581 0.07030802 -0.058443114
-0.052762944 -0.06981654 -0.01819764 0.049900748 -0.04712085 0.0658975 0.07295474 0.05741357
-0.060393147 -0.07153936 -0.04432814 0.05542385 0.0019138381 -0.051762305 0.01938799 -0.026837692
-0.018591776 -0.051344503 0.086861394 0.014705539 -0.0073094517 -0.0680777 0.031432606 0.013675839
-0.07165211 0.076698564 -0.040584866 0.0018374026 -0.05592697 -0.011459835 -0.0788236 0.05103817
0.061417796 0.03665971 -0.029995512 0.03076668 0.006940298 -0.024682395 0.08008834 -0.025290787
-0.07979535 0.07707619 0.045477636 -0.006380677 -0.06359506 0.018606812 -0.010644004 -0.078940205
-0.07366804 -0.033866774 -0.010295592 -0.05890297 -0.06381653 0.06026783 0.039929785 0.018757708
-0.0004779026 0.0059137195 0.049434997 0.07904605 -0.0044099614 -0.06477927 0.008124888 -0.06126923
0.059815057 -0.07647551 -0.06332952 0.03859081 0.060503416 0.00900308 0.028762937 0.06943763
0.0053731427 -0.046022713 -0.05758332 -0.07567124 0.085347034 0.036393404 -0.02903983 -0.03684541
0.02273012 0.01965946 0.0059065 0.0156034455 -0.00013271719 -0.016252987 0.04364363 -0.022980653
-0.016454617 0.0681918 0.02021452 0.08016088 -0.08107125 -0.009833141 0.045553572 -0.07784053
0.05144388 0.060988188 0.042158842 -0.050412945 0.036314774 -0.0337053 -0.02918188 0.0054257466
0.08831137 0.060853254 -0.007083814 0.008543798 0.049697854 0.043821365 -0.015725182 -0.016893463
-0.050178163 0.06239386 0.0028346542 -0.038518183 -0.024892882 0.033099726 0.011342216 -0.058597393
-0.016564662 0.057988197 -0.018618712 0.017287435 0.056769304 0.012174614 -0.010386403 -0.01786056
-0.07075339 -0.035248674 -0.07222065 0.014412712 0.0064434214 0.016966622 -0.00024718235 0.039089646
-0.086224 0.059871405 0.047650397 -0.0867906 -0.054706577 0.035478394 0.039741486 0.08412907
-0.0499805 0.038923033 0.037930917 0.0239605 0.057810303 -0.00962545 -0.021356734 0.014301711
0.02429704 0.07105613 -0.037025273 0.086683534 0.03752423 -0.06737969 -0.026028978 0.08792873
-0.07508701 0.07994413 -0.055955585 0.00435667 -0.020673364 0.044671956 0.03258831 -0.023247343
0.053776514 0.02176538 -0.057193443 0.078448884 0.058908414 -0.0007464343 -0.083648205 0.034527797
-0.06993345 -0.041429434 0.06165887 -0.01856555 0.041747548 0.06539427 -0.028988697 -0.07433527
-0.021976294 0.076086566 0.05098571 0.043070514 0.032852866 0.012636268 0.06189405 -0.057168458
0.053187586 0.014706404 -0.05206669 -0.027655298 -0.009709771 -0.06573216 -0.051325224 0.08778887
-0.067911305 -0.0045683016 -0.063355446 0.007159359 -0.03150346 0.009436307 0.026108999 -0.014914055
0.021760058 -0.08180502 -0.07275657 -0.07576889 0.0019740772 0.06353754 -0.044882104 -0.0515784
00000000: 578f a5bd 50a0 633c 10cc 8bbd 3876 03bc
00000010: ada9 43bd 0e6c 15bd 6cc0 e63c 387b 3cbd
00000020: f933 94bd 1eed 41bd 9e4a 5f3d ad67 90bd
00000030: 9e92 083d 59aa ae3d dc53 82bc b884 3dbc
00000040: d017 b13b 86a9 21bd 845e e93c a263 503d
00000050: a045 e73b f522 983d 53bb 8d3d 7d49 4dbd
00000060: 9a45 3a3d e0a2 aabb 308e 043c efdd 81bd
00000070: 48db c23c 7a6a 50bd 4d25 37bd 469f a2bd
00000080: 0dae 983d de4a 233d 4026 5bbd d0c2 e83b
00000090: 46f0 a6bd 0004 86ba a7fd 8f3d 0c62 6fbd
000000a0: f51d 58bd f9fb 8ebd 3813 95bc ba64 4c3d
000000b0: cb01 41bd 45f5 863d 4b69 953d 7e2a 6b3d
000000c0: ce5e 77bd 3a83 92bd 6c91 35bd 1e04 633d
000000d0: c0d9 fa3a b604 54bd 90d3 9e3c b8da dbbc
000000e0: c84d 98bc 9d4e 52bd 63e4 b13d 80ef 703c
000000f0: 2084 efbb 526c 8bbd 7abf 003d a010 603c
00000100: 57be 92bd 2314 9d3d 513c 26bd 00d5 f03a
00000110: ae13 65bd 08c2 3bbc 456e a1bd 660d 513d
00000120: 3a91 7b3d 7e28 163d 26b9 f5bc 680a fc3c
00000130: 706b e33b bc32 cabc 5b05 a43d a02e cfbc
00000140: bf6b a3bd 1fda 9d3d c246 3a3d 0015 d1bb
00000150: 203e 82bd 506d 983c 3064 2ebc 67ab a1bd
00000160: 45df 96bd e3b7 0abd d8ae 28bc 3e44 71bd
00000170: 3eb2 82bd 66db 763d 6a8d 233d c4a9 993c
00000180: 008f fab9 e0c7 c13b 5a7c 4a3d e5e2 a13d
00000190: 7081 90bb feaa 84bd 401e 053c 72f5 7abd
000001a0: a200 753d 319f 9cbd e8b2 81bd 6611 1e3d
000001b0: 6ed2 773d a881 133c 40a0 eb3c 5135 8e3d
000001c0: 3011 b03b 5082 3cbd 7ddc 6bbd 86f9 9abd
000001d0: 6dca ae3d 4011 153d f0e4 edbc 36eb 16bd
000001e0: 8434 ba3c e00c a13c 508b c13b 98a5 7f3c
000001f0: 002a 0bb9 fc24 85bc aac3 323d ec41 bcbc
00000200: d5cb 86bc 24a8 8b3d ec98 a53c 632b a43d
00000210: af08 a6bd 2f1b 21bc 6296 3a3d db6a 9fbd
00000220: d1b6 523d c0ce 793d c0ae 2c3d ce7d 4ebd
00000230: cdbe 143d 920e 0abd d70e efbc 76ca b13b
00000240: 97dc b43d 4341 793d 571f e8bb 49fb 0b3c
00000250: fa8f 4b3d 087e 333d 19d2 80bc 2964 8abc
00000260: 9e87 4dbd b490 7f3d 9bc5 393b 3ec5 1dbd
00000270: 28ec cbbc 9493 073d b4d4 393c d203 70bd
00000280: 9db2 87bc 0885 6d3d 4586 98bc 619e 8d3c
00000290: ee86 683d 0878 473c bb2b 2abc 4f50 92bc
000002a0: 27e7 90bd ea60 10bd 6ce8 93bd 4c23 6c3c
000002b0: 5623 d33b 96fd 8a3c 4198 81b9 771c 203d
000002c0: 3596 b0bd b83b 753d 102d 433d 45bf b1bd
000002d0: 0114 60bd cb51 113d f8c7 223d dd4b ac3d
000002e0: 5ab8 4cbd c26d 1f3d 735d 1b3d cf48 c43c
000002f0: 7fca 6c3d 10b4 1dbc 51f4 aebc b951 6a3c
00000300: 960a c73c e085 913d d0a7 17bd 2387 b13d
00000310: 02b3 193d 5dfe 89bd b93a d5bc fa13 b43d
00000320: 38c7 99bd bfb9 a33d af31 65bd 66c2 8e3b
00000330: 305b a9bc f1f9 363d 527b 053d 3671 bebc
00000340: c344 5c3d 4f4d b23c ac43 6abd cfa9 a03d
00000350: f349 713d 5cac 43ba c04f abbd 056d 0d3d
00000360: 4539 8fbd e9b1 29bd 038e 7c3d c816 98bc
00000370: 7aff 2a3d 6eed 853d b479 edbc 173d 98bd
00000380: a107 b4bc 46d3 9b3d 64d6 503d b56a 303d
00000390: ba90 063d 5908 4f3c 9e84 7d3d 7929 6abd
000003a0: 3adb 593d 21f3 703c e243 55bd 5d8d e2bc
000003b0: bb15 1fbc 959e 86bd 663a 52bd a7ca b33d
000003c0: 1515 8bbd b1b1 95bb 80c0 81bd 0e99 ea3b
000003d0: c609 01bd bd9a 1a3c 8ae2 d53c 155a 74bc
000003e0: 2642 b23c 6489 a7bd 6601 95bd b82c 9bbd
000003f0: 855f 013b f81f 823d 4cd6 37bd df43 53bd

decoder.hidden.bias f4 [32]
-0.033056594 -0.0011778439 -0.06758396 0.0055634677 -0.062160444 -0.07868234 0.07134641 0.02223215
-0.08131868 -0.032632403 0.070339255 -0.02887698 0.06642854 0.07113417 0.058985304 0.0717567
-0.073904224 0.02801554 -0.0016271215 -0.022289908 0.030856378 -0.088075995 -0.030538028 -0.068813875
0.06235465 -0.00023260713 0.046561204 0.020623036 0.032562204 -0.066088945 -0.026457047 -0.059434913
00000000: 5a66 07bd e261 9aba 7669 8abd c04d b63b
00000010: f39b 7ebd 3524 a1bd 111e 923d 3320 b63c
00000020: 688a a6bd 8ea9 05bd 070e 903d 6b8f ecbc
00000030: b00b 883d cbae 913d 939a 713d 2df5 923d
00000040: 195b 97bd d980 e53c 2345 d5ba 5399 b6bc
00000050: 84c6 fc3c 3061 b4bd e32a fabc 4aee 8cbd
00000060: 9767 7f3d 00e8 73b9 f6b6 3e3d a4f1 a83c
00000070: f25f 053d a459 87bd 73bc d8bc 0672 73bd

decoder.output.weight f4 [1, 32]
-0.024386793 0.005842628 0.14012668 -0.10993333 -0.0818571 -0.07101632 -0.14153674 0.13106364
-0.11256558 -0.047711313 -0.03291206 0.080124915 -0.05324785 -0.12393603 0.13727197 0.13655798
0.15841424 -0.05972234 0.04912342 0.014157625 -0.0046663284 -0.080246754 -0.015069438 -0.09989119
-0.048843246 -0.122326404 -0.08857708 -0.032909527 -0.1609424 0.16204117 0.1439572 -0.13052413
00000000: d0c6 c7bc 8473 bf3b 5e7d 0f3e ba24 e1bd
00000010: b2a4 a7bd 0171 91bd 02ef 10be 8c35 063e
00000020: c888 e6bd f06c 43bd ccce 06bd 8818 a43d
00000030: 6b1a 5abd 2cd2 fdbd 0691 0c3e dbd5 0b3e
00000040: 5837 223e 6a9f 74bd a435 493d 62f5 673c
00000050: 00e8 98bb 6958 a4bd cee5 76bc c193 ccbd
00000060: db0f 48bd 4486 fabd e667 b5bd 24cc 06bd
00000070: 16ce 24be 1fee 253e 8469 133e 1ea8 05be
